results/0/GGBond.onnx (onnx, 265872 bytes, 15 tensors)

action_model._discrete_distribution.branches.0.bias f4 [3]
000000 00 00 00 00 00 00 00 00 00 00 00 00
       0.0 0.0 0.0

action_model._discrete_distribution.branches.0.weight f4 [3, 128]
000000 65 ab 82 3c e2 9c 61 3b b5 9c 4d bc df de 82 3c
       0.015950868 0.0034425785 -0.012549569 0.015975414
000010 4f d4 3d bc e2 2c 5e 3b 90 c2 5a 3c 75 0e 86 bc
       -0.011586263 0.0033901264 0.013352051 -0.016364316
000020 75 80 78 3a 4f 9f be bb fd b1 6c bc 39 e1 90 bb
       0.0009479591 -0.005817331 -0.014446733 -0.00442138
000030 43 5c 60 bb f2 5e f5 3b 63 6b 1a 3c c0 30 f3 3b
       -0.003423468 0.007488125 0.009425017 0.007421583
000040 f3 de 20 3a 52 f1 33 3c 17 06 cf 3b 00 da 16 3b
       0.00061367376 0.010982828 0.0063178646 0.0023018122
000050 5a b3 60 ba d0 82 5e bc 6b 09 92 bb 46 ec 17 bc
       -0.00085716473 -0.013580993 -0.004456689 -0.009272641
000060 5b bb cb bb 56 2f c7 ba 80 2b 81 3b b8 52 49 39
       -0.006217403 -0.0015196602 0.003941953 0.00019199669
000070 8f e2 07 bc 2d d8 7e ba 10 01 9e 3a 20 11 cb 3b
       -0.008293762 -0.0009721544 0.001205476 0.00619711
000080 4b 34 87 3c 9b 8a e7 3a af a2 91 3a 8a 34 53 3c
       0.016504427 0.0017665209 0.0011111106 0.012890944
000090 a8 f4 60 bb 1d f3 d2 bb 7c c3 9d bb bf 18 fb 3b
       -0.0034325514 -0.006437673 -0.0048145633 0.007662862
0000a0 14 90 b3 ba d2 d0 a4 bb c0 f1 02 bc d9 13 ac 3b
       -0.0013699555 -0.005029776 -0.007992208 0.0052513895
0000b0 e7 a4 fd 3b 28 55 47 bb 1d 0a d2 bb bb 48 27 bb
       0.007740605 -0.0030415747 -0.006409897 -0.0025525528
0000c0 e3 e5 75 bc 1f 70 2a 3b 68 a6 43 3c 96 b6 8f 3b
       -0.015008423 0.002600677 0.01194153 0.0043857796
0000d0 3f 65 5c bb 1a df 35 bc 61 d4 bc 3b 6e 61 83 3c
       -0.0033629683 -0.011100555 0.005762622 0.016037669
0000e0 c3 9a 37 3c 55 95 a2 3c 09 a9 29 bb b1 32 cb ba
       0.011206332 0.019846598 -0.0025888106 -0.0015502778
0000f0 f7 04 35 bc 8b 0b 9e 3b 78 07 63 bb 89 9d 84 bb
       -0.011048547 0.0048231534 -0.0034641903 -0.0040471
000100 97 1a 75 bb dc 62 90 bb 3b 37 03 3c 1a 4a 54 bb
       -0.0037399882 -0.004406316 0.008008773 -0.00323928
000110 62 d2 0f 3c 6d 6d 03 3c bb 2b d1 3b d7 35 5c bc
       0.0087781865 0.008021695 0.006383387 -0.013440571
000120 e2 1a cc ba e3 2f ec 3b 8a c4 85 3c 05 c4 40 ba
       -0.0015571977 0.007207857 0.016329069 -0.0007353428
000130 22 34 f7 3a 34 70 05 bc 15 2a e3 3b 75 fc 48 bc
       0.0018860141 -0.008144427 0.006932507 -0.012267222
000140 47 d8 da 3b db 59 0b ba c3 e8 1b 3b 4d 73 48 bb
       0.0066786143 -0.00053158187 0.002378986 -0.0030586303
000150 0d 7e ec 39 67 eb 45 bc 45 f5 51 3b 39 46 34 3c
       0.00045107343 -0.01208005 0.0032037061 0.0110030705
000160 c8 3f de bb a3 a4 1f 3b d3 6f 03 bc 47 64 2c 3c
       -0.0067825057 0.0024359606 -0.008022266 0.010521955
000170 f5 41 0a bc ed 6c 54 bc 64 21 3b bc c7 3e db ba
       -0.008438577 -0.012965423 -0.011421535 -0.0016727083
000180 d3 02 94 ba 6d 6e ea 3b fc 24 05 3c ea 13 7c 3b
       -0.0011292346 0.007154277 0.008126494 0.0038464018
000190 a8 ac 9c 3b 81 c7 22 bc dd cf d0 3b 10 84 08 3c
       0.0047813244 -0.009935261 0.0063724355 0.008332267
0001a0 a7 f9 06 bb c0 50 a5 3b 26 a0 8c 3b dc 52 99 ba
       -0.0020595582 0.0050450265 0.004291552 -0.0011697668
0001b0 53 38 08 3c cd b9 e9 bb 6d 3f 5b 3b 72 04 48 bc
       0.00831421 -0.007132745 0.0033454553 -0.012208091
0001c0 cb d1 39 3b e2 c9 6a bc a8 f8 30 3c 04 c2 b4 39
       0.0028353806 -0.014330359 0.010801472 0.00034476828
0001d0 e5 f3 07 ba c2 84 ea 39 26 bf 22 ba 37 dd 36 bc
       -0.00051861844 0.0004473087 -0.0006208293 -0.01116114
0001e0 83 96 96 3c b1 59 8a 3b db e3 03 3b fc d1 24 bc
       0.018382316 0.004222118 0.0020124826 -0.01005983
0001f0 ff 78 81 3b fb a3 3f bb bf f9 c7 bb bb 09 c3 ba
       0.0039511914 -0.0029242027 -0.00610277 -0.0014880219
000200 b5 0a 20 3c a1 4d c3 3b bc 86 8e bc a6 35 05 bc
       0.009768178 0.005960182 -0.01739823 -0.008130467
000210 d9 4d 04 ba 8d 74 02 3c 23 4d c8 3a 88 3e 9f 3c
       -0.00050470006 0.007962358 0.0015281778 0.019438997
000220 be 0f 36 bc ab ab 42 bc 16 37 bd bb 8f 78 82 ba
       -0.011112152 -0.011881749 -0.005774389 -0.0009954142
000230 42 b0 0d bb 9d 3b e7 3a 40 5a 47 3c ab ee 46 39
       -0.002161995 0.0017641668 0.012167513 0.00018971662
000240 3b 0b 8a 3c 15 88 6e 3c 3d e1 d9 3b 7f 5b 20 3b
       0.016851058 0.014558812 0.006649165 0.0024468598
000250 35 8c 68 3b f5 3f 2d bb 83 92 fd 3b d7 5b 42 bc
       0.003548396 -0.0026435826 0.007738413 -0.011862717
000260 5f 42 92 bb 47 f3 17 bb 35 1a 07 3c 67 0d 14 bb
       -0.0044634785 -0.0023185776 0.008245994 -0.0022590996
000270 bd 52 1c bc f5 56 45 3b 27 31 97 bb 00 39 7c bb
       -0.009541211 0.0030111645 -0.0046140137 -0.0038486123
000280 c7 3f 6e 3b f0 55 6d bc 20 a6 a6 3b 85 e1 83 bc
       0.0036353932 -0.014485821 0.0050857216 -0.016098747
000290 88 12 60 3b c6 80 0a 3c 7f f5 40 3b 3e d1 2c bc
       0.0034190733 0.008453554 0.0029443202 -0.010547934
0002a0 96 8a 3a 3b 19 63 ad bb a5 15 9c bb ff 40 89 3c
       0.0028463951 -0.0052913544 -0.0047633224 0.016754625
0002b0 5f 44 bd b9 67 ec fd 3b 79 ba 1a 3c 53 bc 25 3b
       -0.0003609983 0.0077491286 0.009443873 0.0025289252
0002c0 bd e4 5d 3c 6b 9f 12 ba 25 81 e8 3b 68 b1 13 3c
       0.013543305 -0.0005593213 0.0070954734 0.009014465
0002d0 79 be 1c b7 4b 63 3c bc 8b 0b 06 b9 b7 0a 0d bc
       -9.3426725e-06 -0.011498283 -0.00012783536 -0.008608512
0002e0 bd 44 d5 ba ba c6 fb 3b 42 aa 17 3c 92 06 91 3a
       -0.0016271096 0.007683602 0.009256901 0.001106458
0002f0 69 89 8c 3c 4a e5 90 bc 7b 4f f8 39 41 8d 3a 3c
       0.017155366 -0.017687459 0.00047361464 0.011386217
000300 4d 3d 8d 38 f2 2f 59 3b f0 82 f1 3b 78 f0 a1 3a
       6.734822e-05 0.003314015 0.0073703453 0.001235499
000310 53 ee 28 bc d3 88 46 3c f3 f5 06 3c e3 b7 57 3c
       -0.010310727 0.012117582 0.00823735 0.013166401
000320 89 44 b0 3b 6f 5d 0d 3c 4a 5a 02 3c 29 7c 15 39
       0.005379264 0.008628233 0.007956097 0.00014256
000330 2a 1a dd 39 9b aa 1b bc ff 8c 87 bb 37 a3 17 3c
       0.00042171899 -0.009501125 -0.004136681 0.009255222
000340 a8 e6 37 3a 07 f8 0b bc 80 e9 6c 3c 70 c7 d3 3b
       0.00070152665 -0.008543021 0.014459968 0.006462984
000350 a2 64 18 3c 3e 97 95 bc a7 93 13 bc 57 04 c8 bb
       0.0093013365 -0.018260594 -0.009007371 -0.006104033
000360 0f 86 65 bc f3 6e 13 3c 02 6d 84 3c 77 21 0c bc
       -0.014009013 0.00899862 0.01616526 -0.0085529005
000370 41 2a ca 3b ac bd 9b b9 d3 99 28 bb d7 f6 f8 3b
       0.006169588 -0.0002970522 -0.0025726452 0.007597785
000380 03 7e 17 bc 4e 2e 08 bc b0 13 6c 3b 85 51 28 bc
       -0.009246352 -0.008311821 0.0036022477 -0.010273342
000390 a0 a6 e1 bb ab 26 06 3c bb da d7 ba d3 c2 d3 bb
       -0.0068863183 0.00818793 -0.0016468385 -0.006462434
0003a0 ba c5 24 3c 41 e6 24 3c 7d 4b 78 3a 60 36 e9 bb
       0.010056907 0.010064662 0.0009471698 -0.0071170777
0003b0 65 9e 9d 3b e5 c0 f5 bb fd 82 d2 3b 57 9d 6b 3b
       0.004810142 -0.0074998015 0.0064243064 0.0035951936
0003c0 cf e7 c7 3a 43 e8 58 bb 98 b0 d8 bb 25 be 0b 3c
       0.001525158 -0.0033097423 -0.0066128485 0.008529221
0003d0 22 1a 62 3b 0e 92 a0 3b 15 da 61 3b 1b fb 8c 3c
       0.003450044 0.0049002236 0.0034462262 0.01720958
0003e0 8d c7 88 bb eb a4 91 b9 c3 0c 84 bb d3 a7 2b bc
       -0.004174179 -0.0002777943 -0.0040298416 -0.010477024
0003f0 aa 99 ef 3b b8 7c 38 3b 37 ca 05 3c 92 49 d5 3b
       0.0073120194 0.002815051 0.008165888 0.0065090144

action_model._discrete_distribution.branches.1.bias f4 [3]
000000 00 00 00 00 00 00 00 00 00 00 00 00
       0.0 0.0 0.0

action_model._discrete_distribution.branches.1.weight f4 [3, 128]
000000 ab bd 0c bc 33 8f e3 3a dc eb 8a 3b 1e 8b c8 3b
       -0.008590142 0.0017361402 0.0042395424 0.0061200997
000010 c4 af 35 bc 10 b1 cd 3b 62 ab 88 3b b3 a5 ed bb
       -0.011089269 0.006277211 0.004170821 -0.007252419
000020 3c b0 9d bb ab 5f 18 3c 3f 15 e6 ba 07 e3 0d ba
       -0.0048122685 0.009300153 -0.0017553939 -0.0005412553
000030 7c 45 85 ba e3 6e 6b 3b 55 8c 93 bb 5a a0 ab bb
       -0.0010167803 0.0035924248 -0.004502813 -0.0052376213
000040 75 14 ab 3c 46 92 11 3c b0 d2 5a b9 df ad 66 3b
       0.020883778 0.008884972 -0.00020868587 0.003519885
000050 aa 4e 24 ba d3 f4 f9 3b 51 1a 00 3c f6 32 3a 3b
       -0.00062678254 0.0076280623 0.007818774 0.0028411723
000060 85 31 9f bb 55 f3 48 3b b7 95 cb 3b af a6 37 bc
       -0.004858198 0.0030662615 0.0062129158 -0.011209174
000070 a0 d6 2d 3c a1 d4 2e bc 45 e8 39 bb a2 32 98 bb
       0.010610253 -0.010670812 -0.0028367203 -0.004644708
000080 c0 56 a9 bb fb dc 2f bc 3d ff 42 bb f3 a2 3f 3a
       -0.005167812 -0.010733838 -0.0029754185 0.0007310353
000090 65 f7 e2 bb a1 19 c8 bb 7c c7 aa 3c db b1 a8 bb
       -0.0069264644 -0.006106571 0.020847075 -0.005148155
0000a0 92 65 7a bc 5b da 12 bc 5e e2 08 bc 4b 96 f4 3a
       -0.015283005 -0.008963193 -0.008354751 0.0018660513
0000b0 b3 59 24 3c 1d cb 02 bc fb 47 82 3b a7 d4 be 39
       0.010031152 -0.007982996 0.003975866 0.00036398062
0000c0 02 fa 53 bc 6b 25 8f bb 0b 22 9b 3b 57 85 33 3b
       -0.0129380245 -0.0043684742 0.004734283 0.002739271
0000d0 dc 3d 89 bb 6f 80 09 39 33 80 7f bc 10 c2 e9 3b
       -0.0041882824 0.00013113183 -0.01559453 0.0071337298
0000e0 66 8f 1f bc d9 a5 8d 3c cb 27 2f 3b 7b 00 93 39
       -0.009738779 0.017290996 0.00267266 0.00028038383
0000f0 26 65 a4 3c cc 43 42 bb e6 30 b3 3b fe 12 19 3c
       0.020067763 -0.002964246 0.0054684756 0.009342907
000100 bd 26 f7 bb df 85 64 bb 02 16 d2 3b 1b b8 92 3c
       -0.0075424598 -0.0034869832 0.006411315 0.017910054
000110 70 56 f5 3b fc 77 93 bb 86 4f b0 ba 85 ce 8a 3c
       0.007487111 -0.0045003872 -0.0013451434 0.01694418
000120 c7 01 5f bb 1d fc 96 bc d7 50 65 3b 1f be b3 3b
       -0.003402816 -0.018430764 0.0034990811 0.0054853107
000130 07 ba 12 3c 01 32 a1 bc a2 7c ce 3b 0e e4 a6 3b
       0.008955485 -0.019677164 0.0063014785 0.005093104
000140 c1 02 8b bc e7 3e 68 ba d5 ec cd bc da a5 8d bb
       -0.016969087 -0.0008859471 -0.025137344 -0.0043227496
000150 09 fe 99 3b 25 e1 04 3c 55 fe 98 ba ed 69 ae 3b
       0.004699473 0.008110319 -0.0011672477 0.005322686
000160 e6 08 30 bc 95 fb 8a bb 8f 6b 41 37 27 01 c5 3b
       -0.010744309 -0.0042414167 1.1528739e-05 0.0060121003
000170 ff 46 8e bb 21 41 90 3c 64 c3 cb bb 81 27 c0 bb
       -0.0043419595 0.01760918 -0.0062183607 -0.005864084
000180 40 9a 7f bb c3 9a 0a bb 33 2e 7f 3c 96 b9 0b 3c
       -0.0039001852 -0.0021149374 0.01557498 0.008528134
000190 10 cf d3 bb 03 fc 6c bc d7 9e 5d bb fb 04 d6 3b
       -0.0064638928 -0.014464381 -0.00338166 0.0065313554
0001a0 30 66 3e 3c 3d f8 b2 ba 78 d1 c3 3b 63 75 16 3b
       0.011621043 -0.0013654303 0.0059758984 0.0022958152
0001b0 83 97 12 bc 94 eb 82 3c 03 9d cc 3b 5b b3 25 3c
       -0.008947256 0.015981473 0.006244303 0.010113562
0001c0 87 f1 eb ba 6b 7e 94 bc 2a 7e e8 bb 57 45 76 3c
       -0.0018001058 -0.018126687 -0.007095118 0.01503118
0001d0 1b 2c 61 bc b0 01 f9 bb 25 2c 89 39 50 4f f7 3a
       -0.013743426 -0.007599078 0.00026163567 0.0018868241
0001e0 2c a2 1f bc 5b 6b 18 3c 56 1d 28 bc 78 39 b1 3b
       -0.009743255 0.009302939 -0.0102609005 0.005408462
0001f0 18 76 9d 3b 08 d2 d9 3b 1a dc 51 3b 47 e7 3a 3b
       0.0048053376 0.006647352 0.003202206 0.00285192
000200 32 ce fa ba 66 d2 9c bb 6e 9b 32 3c bb a1 dc 39
       -0.0019134937 -0.0047858236 0.010901315 0.00042082169
000210 4a bd 58 ba 41 2c 22 3c 73 1e 7b ba 0b b0 e4 bb
       -0.00082679524 0.009898246 -0.00095794274 -0.006978994
000220 d7 09 ca 39 aa 24 5b bc f0 4b cf 3b 52 f7 7a 3c
       0.00038535774 -0.013375441 0.006326191 0.015317755
000230 65 54 77 3c 5b 0b f9 3b 2b 02 54 bc b0 37 7c bc
       0.015095805 0.0076002306 -0.01293997 -0.015394136
000240 92 21 0f 3c e2 eb 96 3b d9 38 45 bc fd ec 45 3b
       0.008736031 0.004605756 -0.012037479 0.003020107
000250 a0 bb 5e 3b 6c 0e 9f bc 89 33 04 3c 4a 9e b3 3b
       0.0033986345 -0.019416057 0.008068928 0.005481516
000260 b3 c9 0c 3c 23 b6 c1 bb 20 46 d5 3b 38 a9 6e bc
       0.008593011 -0.005911605 0.0065086037 -0.014566712
000270 fd 47 a5 3b 19 4a 93 3c 84 7f 12 3b 6b 9f 0d 3c
       0.005043982 0.017979668 0.0022353837 0.008643965
000280 d9 7e 37 bb 2b 4a de 3c bc 30 83 3c 67 01 07 3b
       -0.002799919 0.027134975 0.01601445 0.00206002
000290 d1 84 45 bb 74 de 91 bb 65 c1 e6 bb 03 97 ef 3a
       -0.003013898 -0.0044515673 -0.0070420974 0.0018279258
0002a0 72 75 f4 3b c6 8d 9d bc 14 5f 37 3b 30 eb ce bb
       0.0074602896 -0.019232642 0.0027980255 -0.0063146576
0002b0 41 b0 3d bc f0 8b 90 bb b7 68 f3 bb 83 34 64 bb
       -0.011577667 -0.004411213 -0.0074282545 -0.0034821338
0002c0 78 16 e6 bb 5d 39 03 3c 60 74 81 3b 73 5b 8a bb
       -0.0070217215 0.008009282 0.0039506406 -0.0042223274
0002d0 d8 07 b9 3c eb 79 43 bc 48 57 59 3c 4b d1 b5 bb
       0.022586748 -0.011930923 0.013265438 -0.0055486313
0002e0 aa 45 7d bc 9c 54 8c 3b 17 a5 0b bc bb 42 7d 3b
       -0.015458504 0.004282547 -0.008523247 0.003864451
0002f0 a7 f6 3c bc 77 ba ca ba f7 d1 bf 3b fc 36 03 bb
       -0.011533416 -0.0015466948 0.005853887 -0.0020021787
000300 45 08 79 3b dd 15 8c bb a7 14 02 3c a9 05 97 3b
       0.0037999314 -0.0042750672 0.007939494 0.004608829
000310 dd 63 49 3c 0b 65 a6 bb 27 70 2a bb 68 10 87 bc
       0.012291876 -0.005077963 -0.002600679 -0.016487315
000320 1d f4 5d 39 22 54 8c ba 67 4f 46 bc 55 25 fb bb
       0.00021167142 -0.0010706226 -0.012103892 -0.0076643624
000330 c3 22 1d 3c 51 63 27 bc cb 80 7a bc 98 5c ef 3b
       0.009590807 -0.01021655 -0.015289496 0.007304739
000340 7d a4 7c bb 57 e4 0c bc 04 e3 8a ba d3 eb b6 ba
       -0.003855019 -0.008599362 -0.001059622 -0.0013955779
000350 c5 48 f9 bb 7f 8f 26 bc 0f 1b 9c bb 68 45 77 3b
       -0.0076075518 -0.010166048 -0.004763968 0.0037730578
000360 19 1a 80 3b 9f 31 24 bb df 58 bb 3b 91 b9 2c 3c
       0.003909361 -0.002505399 0.0057173814 0.010542289
000370 ad 5b e3 ba 3f 60 fa bb 17 17 57 3a c8 9e 93 3b
       -0.0017346047 -0.007640868 0.000820504 0.004505012
000380 cf 94 b1 3a 7f 69 fa 3b ca a7 d2 3c 09 2b 12 bb
       0.0013548377 0.0076419706 0.025714774 -0.0022303483
000390 36 44 46 bc d2 a2 41 bc 5b 96 b8 bb d8 dc cf bc
       -0.012101224 -0.011818605 -0.005633158 -0.025373861
0003a0 66 f7 80 bc 12 8e c7 ba f2 9e 4d bc 3b 2d 29 bb
       -0.015742969 -0.0015224835 -0.012550103 -0.0025814313
0003b0 aa a8 6d bb 53 ab 9d 3c 8f c5 5c bc 66 b4 b3 3a
       -0.0036263862 0.019246733 -0.013474836 0.0013710379
0003c0 79 84 3a 3b 0f d8 f7 3b 8b 01 80 3b f4 7e 23 bc
       0.0028460308 0.007563598 0.003906434 -0.009978998
0003d0 11 4f 2b bc dd ed e7 ba 9b 25 c0 3b a7 2f 4d bb
       -0.010455863 -0.001769479 0.005863858 -0.003130892
0003e0 9a e0 55 3a 6d a0 34 bc a2 8d bb bc 01 33 85 bc
       0.00081587734 -0.011024577 -0.022894684 -0.016259672
0003f0 5b 9d 2b 39 0a 00 96 3b f7 45 10 bc b4 ff aa 3a
       0.0001636645 0.0045776414 -0.008805743 0.0013046176

action_model._discrete_distribution.branches.2.bias f4 [2]
000000 00 00 00 00 00 00 00 00
       0.0 0.0

action_model._discrete_distribution.branches.2.weight f4 [2, 128]
000000 2b 61 07 39 88 62 c4 b7 2a c5 e3 bb 69 92 b1 bb
       0.00012910801 -2.3410903e-05 -0.006950994 -0.005419065
000010 eb 2f dd bb 67 77 f8 3b 10 82 fa ba 90 03 6f 3b
       -0.006750097 0.0075825932 -0.0019112248 0.003647063
000020 bd 23 30 bc e1 a6 8e 3b 57 fc 37 3c 41 0a 8f bb
       -0.010750708 0.0043533896 0.011229596 -0.004365236
000030 5c 3f 95 3a 82 2c 37 3c 4f e6 29 bb df 80 a6 3b
       0.001138668 0.011180045 -0.0025924628 0.0050812806
000040 42 25 45 3c 9b b0 f9 3b 8f 99 0b 3c 73 1d 85 3b
       0.012032809 0.00761993 0.008520498 0.0040623485
000050 57 a3 c4 3b 4c e2 c9 bb 81 31 43 3c d5 97 06 3c
       0.006000917 -0.00616101 0.011913658 0.0082149105
000060 7b df 58 bb ff 4e e4 3b 4f b6 81 3b 30 5d a4 bb
       -0.003309219 0.006967425 0.0039585005 -0.0050159916
000070 82 68 e6 3b 08 b2 50 3c 75 f8 6b 3c 8b 05 0f bc
       0.0070315013 0.012737758 0.0144024985 -0.008729349
000080 b2 aa 75 bb 70 98 30 3a c6 2f 2c bc 6e c2 1e 3c
       -0.0037485776 0.0006736582 -0.010509437 0.00968991
000090 9f ec 04 bc d8 92 81 bc 07 d3 53 3b 02 44 e9 3a
       -0.0081130555 -0.01581709 0.0032321827 0.0017796757
0000a0 cb 13 d5 3b e6 5a 8d 3b 1f 4e fa 3b 5a d0 dd 3b
       0.0065026036 0.0043138145 0.0076387073 0.006769222
0000b0 87 c3 5b bb a8 2f 01 bc f7 5e f1 3a 4e a3 a7 3a
       -0.0033533291 -0.007884897 0.0018415143 0.0012789757
0000c0 8a e6 4f 3c 1a b9 04 bb ca 5a f7 bc 98 3c 44 bb
       0.012689242 -0.002025193 -0.030194659 -0.0029943343
0000d0 70 6a ab 3b 4d 5d 0e 3a 03 ee da b7 4b 8e 0e 3c
       0.005231194 0.0005430773 -2.6098458e-05 0.0087009175
0000e0 dd 8c 64 bc 97 0c c2 bb 47 81 4c bb a5 4a 90 bb
       -0.0139496 -0.005921911 -0.0031204985 -0.0044034296
0000f0 29 10 86 3b 9c ce a8 3b 66 95 c5 bb 07 9a dc bb
       0.004091282 0.005151583 -0.0060297726 -0.0067322287
000100 d3 a7 b5 3c bf c3 b7 3a 40 e4 df bb 72 6e e8 3b
       0.022174751 0.0014020129 -0.0068326294 0.007093244
000110 66 f9 00 3c bf a4 76 3c 2f 50 0b 3c 8e 93 23 3c
       0.007871961 0.015053927 0.008503004 0.00998391
000120 9a ee 76 3b 1e 4f 46 bc 7b fa 83 bc b5 3c f7 bb
       0.0037678839 -0.012103824 -0.01611065 -0.0075450786
000130 32 15 0b bc 18 e1 e0 3a 59 aa a0 ba df 6c 80 ba
       -0.00848894 0.0017156927 -0.0012257799 -0.0009798071
000140 36 02 2e bb 47 a0 50 3b 42 4d e0 b9 2f 35 1d 3c
       -0.002655161 0.0031833814 -0.0004278217 0.0095951995
000150 fd 47 8a bc a4 47 90 3c 18 4b 4b bc 76 63 c3 3b
       -0.01688003 0.017612286 -0.01240804 0.0059627844
000160 c7 a9 42 bc 42 8e 1f 3c 47 d2 32 bc b3 50 0c bc
       -0.011881298 0.009738507 -0.010914392 -0.008564162
000170 d9 3e 8e 3a 1b fa ed 3b 3a fc 21 ba 77 13 1c 3b
       0.001085247 0.007262481 -0.0006179247 0.0023815313
000180 f5 cc 29 bb b0 c7 3d 3b 8d c6 0c 3c ad 60 8c bb
       -0.0025909517 0.0028958134 0.00859226 -0.0042839856
000190 3d e0 37 bc 90 66 93 3b 13 90 13 bb da a1 b0 bb
       -0.011222896 0.0044983104 -0.0022516295 -0.005390388
0001a0 bb 81 28 3a ef 7f c7 bb fe 94 8c bb 75 df fd 3b
       0.0006428023 -0.006088249 -0.004290222 0.0077475854
0001b0 45 3a 95 bb 6d fb 1e bc 72 1b 89 3c 53 4b 48 bb
       -0.0045540654 -0.009703499 0.01673672 -0.0030562475
0001c0 7f 07 68 bc e4 5a 09 3b b3 7d 70 bc f8 be 50 3b
       -0.014161943 0.0020958716 -0.0146784065 0.0031852107
0001d0 95 80 f3 bb cb f3 55 3b 98 73 b1 b9 ae f7 93 bb
       -0.0074310997 0.0032646533 -0.00033846195 -0.0045156097
0001e0 b3 86 ae bc 37 e5 3b 3b d7 bd 82 3a 0b 60 ef 3b
       -0.021304464 0.0028670558 0.000997479 0.0073051504
0001f0 18 f2 83 3c f4 00 07 3b 50 57 0f bc d3 2d 9e 3b
       0.01610665 0.0020599933 -0.008748844 0.00482724
000200 f0 f2 b7 3b 92 d0 ca b9 33 88 c1 bb a6 5e 45 3b
       0.005613677 -0.0003868384 -0.005906129 0.003011623
000210 b3 6c 08 bc 58 95 d8 bb 27 ee 72 bc 38 8e 74 3c
       -0.008326697 -0.0066096 -0.014827288 0.014926486
000220 1d 5a 57 bb e1 f9 21 3c 2d d8 f0 bb 4d 4a 8e bb
       -0.0032860108 0.009886236 -0.007349989 -0.0043423534
000230 2b e0 54 bc 42 04 2e 3c cb e1 46 bb a8 fe 30 3c
       -0.012992899 0.010621132 -0.0030346985 0.010802902
000240 27 56 8a 3a 2e 89 01 bc 47 4a de bb 1f a2 aa 3c
       0.001055424 -0.007906241 -0.006783757 0.020829258
000250 1a 6f 2d bc 2f e4 58 3b 61 3f 49 ba e5 c4 d2 3b
       -0.010585571 0.0033094992 -0.00076769857 0.006432163
000260 f0 53 70 3c fa f0 59 bc 9f 9f c8 b9 07 28 8b 3c
       0.01466845 -0.013302082 -0.000382659 0.01698686
000270 41 b2 87 3b 68 43 04 3c e7 87 12 bc 53 92 90 bc
       0.0041411226 0.0080727115 -0.008943534 -0.017647898
000280 6a 68 03 3c 4f 4d fa 3b 96 1f 3c bc f8 bf 70 bc
       0.0080205 0.0076386104 -0.01148214 -0.014694206
000290 4f 69 c9 3a 42 c9 a8 bb ba 8b 52 bb 2f 10 b4 bb
       0.0015366467 -0.005150945 -0.003212674 -0.0054950933
0002a0 78 45 31 3c 4f 19 74 bb e3 83 c3 bb c5 9d 58 3a
       0.010819785 -0.003724653 -0.00596665 0.00082632556
0002b0 6b c7 69 bc a9 0d 81 3c 45 1c f2 bb 23 42 e5 bb
       -0.014268736 0.015753584 -0.007388624 -0.0069964095
0002c0 1a 8d 2c bc 10 65 82 bc 20 5e 75 3c 6d 06 57 3c
       -0.010531688 -0.015917331 0.014976054 0.013124091
0002d0 89 87 34 3b 73 03 5c bc 31 9a c1 3b 73 81 1e bc
       0.0027546606 -0.013428557 0.0059082736 -0.009674418
0002e0 63 1c 01 bc 43 95 1b 3c af b6 52 3c 29 02 27 3c
       -0.007880303 0.009496036 0.012860938 0.010193386
0002f0 a7 7d 11 3c 5f 2a 8d 3c 33 ee b6 3b cc ae ca bb
       0.0088800555 0.017232118 0.005582595 -0.006185388
000300 f3 cd 95 bc 53 23 67 3b cf 37 d3 3a a3 47 2e bc
       -0.01828668 0.0035268858 0.0016114655 -0.010637197
000310 81 95 bb bc da 65 c3 3b 07 47 a5 bb 1b 35 35 bc
       -0.022898437 0.0059630694 -0.0050438675 -0.011060025
000320 f7 7a d7 bb fc df 91 3b 4a e2 2b bc 00 79 dc 3a
       -0.006575938 0.00445175 -0.010490963 0.0016820729
000330 ca fc ef bb 52 e3 6f bb 9d 03 e1 ba 31 7c 03 bc
       -0.007323836 -0.0036604 -0.0017167215 -0.008025215
000340 e3 09 a7 3c 0d c4 76 3b 26 c2 b1 3b 70 71 81 3b
       0.020390457 0.0037653476 0.0054247556 0.0039502904
000350 02 a5 53 3a 28 d4 42 3c b9 f3 ca ba a6 07 39 3c
       0.00080735993 0.011891402 -0.0015484012 0.011293327
000360 ef 23 66 ba b7 ba 1f 3c 30 43 8a 3c 7b 6c 74 3c
       -0.0008779158 0.009749106 0.01687774 0.014918442
000370 b0 40 61 ba 8c e1 2d bb af 7d 7f 3c dd a2 a7 3a
       -0.0008592708 -0.0026532141 0.01559393 0.0012789626
000380 6e 84 1f 3b 31 bc 00 ba bc e0 11 3c 88 e4 01 3b
       0.002434041 -0.0004910855 0.0089036785 0.0019820053
000390 5d 94 fd 3b 6d 4c 73 3c 1e 99 38 ba 30 c3 03 bb
       0.0077386335 0.014849764 -0.0007041859 -0.0020105354
0003a0 b2 f9 ff 3b 78 bd 05 bc de 4a 0c bc 23 0c ba 3b
       0.0078117484 -0.008162849 -0.008562772 0.0056777163
0003b0 d3 a9 11 3b aa 5e e1 3b f9 61 ae 3c 00 98 b2 3a
       0.0022226467 0.00687774 0.021286951 0.0013625622
0003c0 6b d9 09 3c 5d 73 0c bc 1d e3 9f 3b bd 54 86 3c
       0.008413653 -0.008572427 0.004879369 0.016397828
0003d0 c7 20 18 3c cc c9 c1 bb ad 63 9f 3a 4e 09 1f bc
       0.0092851585 -0.0059139486 0.0012160443 -0.009706808
0003e0 f5 c6 52 ba eb 31 d5 bb 05 ee 36 bb 7b 56 16 bc
       -0.0008040511 -0.006506195 -0.0027912867 -0.009175892
0003f0 33 16 aa 3c 43 a4 0d 3c 5a 89 e9 bb 9a c0 33 3b
       0.020762539 0.00864512 -0.0071269693 0.0027428032

action_model._discrete_distribution.branches.3.bias f4 [2]
000000 00 00 00 00 00 00 00 00
       0.0 0.0

action_model._discrete_distribution.branches.3.weight f4 [2, 128]
000000 70 b2 e2 39 0f 1b 67 3c 1f 0e 7d ba 8b 92 c8 ba
       0.00043239025 0.014105572 -0.0009653288 -0.0015302462
000010 b6 e0 33 bb 34 d1 39 bb 8a 33 4c bb e9 af 15 bc
       -0.002744717 -0.0028353455 -0.003115865 -0.0091361785
000020 9a 21 76 bb db a7 1b 3b 02 8f ad bc 98 23 26 bc
       -0.003755665 0.0023751173 -0.021186356 -0.010140322
000030 cb 65 a8 3b 5f 65 83 bb f0 9d 32 3b b2 2a 17 bc
       0.005139088 -0.004009887 0.0027254783 -0.009226488
000040 fa bd 69 3c df 2b 14 3a 2f 71 75 3c 40 87 2c 3a
       0.014266485 0.0005652289 0.014980598 0.0006581433
000050 cd 83 60 bb cf 55 03 bc bd fd aa 3b 3d 7a 8d 3a
       -0.0034258247 -0.008016064 0.0052182362 0.0010793876
000060 0d 51 53 3b fa 79 58 bc 08 5f 63 bb a3 ff 83 bc
       0.0032244355 -0.013212675 -0.0034694094 -0.016113108
000070 b9 2b a5 3b 5b 6f ec ba 3a fa 55 ba 75 c3 20 bc
       0.0050406125 -0.0018038558 -0.0008162592 -0.009812226
000080 7f 7c d1 3b a3 e2 19 3c df 9c a7 bb fd 33 21 3c
       0.006393015 0.009392413 -0.005115136 0.009839055
000090 1f 57 70 39 57 b8 67 bc 3b fe f6 3a 97 7a 01 3c
       0.00022920639 -0.014143071 0.0018844077 0.007902763
0000a0 cd 31 b3 3b 7c bc 3e 3a 6f 44 b1 3c 8b e0 55 bb
       0.005468583 0.0007276011 0.021639077 -0.0032635059
0000b0 c2 b6 da 3b af 83 83 bb 7b e5 3f bc e0 7e b5 bb
       0.0066746185 -0.0040135006 -0.011712427 -0.0055388063
0000c0 ab 8d 01 bc a2 9b 92 ba 7d ab 98 3c cb 55 a6 bb
       -0.007907311 -0.0011185298 0.01863646 -0.0050761453
0000d0 7b a6 14 3c 0c e4 0f bb ff 4e c9 3a 41 57 10 ba
       0.009072895 -0.0021955995 0.0015358626 -0.0005506166
0000e0 ef b5 0c bc 9d 37 fa bb 25 24 6f 3b 9b 29 b9 bb
       -0.008588298 -0.007636024 0.003649005 -0.0056507117
0000f0 fc 5b 86 3b f7 7d 03 bc 7a f4 d5 bb bf cc 9e 3c
       0.004100321 -0.008025638 -0.006529388 0.01938474
000100 87 58 25 3b 7d d9 dd bb c5 35 0f b9 d3 ef d5 bb
       0.0025229768 -0.0067703114 -0.00013657573 -0.0065288334
000110 72 a7 fb bb 35 9c 4b 3c 04 cc 8b 3c 17 9a 1b 3c
       -0.007679873 0.012427379 0.017065056 0.009497187
000120 35 7f 26 3c cf f5 c9 3a 8a bd 4d bc 65 f5 3c bc
       0.010162164 0.001540834 -0.012557397 -0.011533116
000130 35 be ac bb 92 b2 55 3c c2 3a 81 bb 94 a3 1c 3b
       -0.005271698 0.013043063 -0.003943772 0.002390121
000140 f7 c1 84 bc 19 2c 93 3c e5 93 72 3b 7f 93 51 bc
       -0.01620577 0.017965363 0.0037014422 -0.012791513
000150 9b 30 64 bb b9 f3 9e bb 5f 5d a5 3b 1c 12 b6 3b
       -0.003481901 -0.0048508313 0.005046531 0.005556358
000160 6f 20 03 3a 80 2c 5c 3b fb 27 f8 ba 7b 18 de ba
       0.00050020864 0.003359586 -0.0018932814 -0.0016944552
000170 f3 52 91 3c 40 aa 02 3b bf 2b 52 3c f6 62 b3 3a
       0.017739749 0.0019937903 0.012827813 0.0013686109
000180 37 70 e4 bb f9 85 bc bb 67 18 3e bb d8 ce 03 3c
       -0.006971385 -0.0057532755 -0.0029006244 0.008044921
000190 83 3b 40 bb 6e 3c 89 3c 68 a6 42 3c 13 2c bd bb
       -0.0029332347 0.016752448 0.011880495 -0.0057730763
0001a0 95 77 95 3c dd 7e d9 b8 99 e6 af bb 8f 53 54 3a
       0.018245498 -0.000103709965 -0.0053680656 0.00080996094
0001b0 f7 32 59 3b a7 6f 93 bb cd f7 ab bb d9 f4 9c 39
       0.003314195 -0.004499394 -0.005248046 0.00029937064
0001c0 b3 f9 91 ba bd 82 d9 bb bf 5f 2d 3c 0b 52 65 bc
       -0.0011137038 -0.0066378997 0.01058191 -0.013996611
0001d0 8b 34 8b bb 8b 22 30 3c 17 80 1b bc fa c0 f3 bb
       -0.004248207 0.010750423 -0.009490988 -0.007438776
0001e0 4b 0d 77 3c 7e 2a 97 bb 6b 7d 74 bc e0 7b 15 3a
       0.015078853 -0.0046132198 -0.01492248 0.0005702358
0001f0 c2 e6 4e bb 3a 9f d6 b9 55 f5 6b 3a 4d 62 fa b9
       -0.0031570648 -0.00040935894 0.0009001096 -0.00047756956
000200 ca 3b 04 3c 94 36 9c 39 de c3 0c bc b0 c2 52 3b
       0.008070895 0.00029795303 -0.00859162 0.00321595
000210 fd 62 93 ba f5 7e ea 3a 62 21 6a 3c eb f2 74 3b
       -0.0011244711 0.0017890619 0.014290186 0.0037376236
000220 3d b5 65 3a 0a da 5b bb bb 3b 12 b8 91 f4 84 bb
       0.00087626633 -0.003354671 -3.486474e-05 -0.004057475
000230 7f d6 ab bb c1 71 13 3a cf 0b 86 3c e7 02 7e bc
       -0.005244076 0.00056245556 0.016363053 -0.015503622
000240 6a dd 20 bc 62 43 ce bb 23 95 b1 3c 97 14 e0 3a
       -0.009818414 -0.0062946538 0.02167756 0.001709598
000250 34 e8 9c bc 0c 7e b7 3b 40 69 d8 3a 10 91 e3 bb
       -0.019153692 0.0055997428 0.0016510859 -0.006944783
000260 68 f6 e4 bb ce 4c 3d bc 00 88 a3 3b 0b 07 42 3b
       -0.0069873817 -0.011553956 0.0049905777 0.0029606249
000270 78 b4 ae b9 58 8c 44 bc 83 5f da 3a 0b 1e 59 bc
       -0.00033322326 -0.011996351 0.0016660545 -0.013251792
000280 23 f1 b2 3b 69 6c b9 ba 07 d9 6f ba 2b fe 36 3c
       0.0054608746 -0.0014146689 -0.0009149466 0.011168997
000290 7e c9 25 3b 1b b4 10 bb 7d cc 80 3a 1f f9 c8 3b
       0.00252971 -0.0022080007 0.0009826567 0.006133213
0002a0 e0 c4 9d bb 90 e7 9b bc e5 c9 42 3a c7 f6 f3 3b
       -0.004814729 -0.019031316 0.00074305973 0.0074451896
0002b0 04 c9 25 bc 6b 6e 23 bb 76 4f aa bb bb 26 a8 3c
       -0.010118727 -0.002493764 -0.0051974608 0.02052628
0002c0 38 14 e0 39 4b e2 ab bb 82 dc 3f b9 73 36 76 3c
       0.00042739674 -0.005245482 -0.00018297325 0.01502763
0002d0 43 16 c2 3b 89 2b 0e bb 81 a7 95 3c 57 34 87 3c
       0.005923064 -0.002169343 0.018268349 0.01650445
0002e0 5d d0 6c 3c f5 4e cd 39 80 a0 d7 3b 52 8d d0 bb
       0.014453975 0.00039159475 0.0065804124 -0.006364503
0002f0 a3 35 0c 3c 60 9a 85 3b 73 b4 6a bc 7d 63 87 bb
       0.00855771 0.004077241 -0.014325249 -0.004131733
000300 fe b2 03 bc 62 38 52 3a af 38 ec 3b dd 93 5f bc
       -0.0080382805 0.0008019266 0.0072089056 -0.013646093
000310 8f 3c 03 bc fb 81 05 3b 65 08 23 bc 18 5b a8 3a
       -0.008010044 0.0020371664 -0.009950732 0.0012844531
000320 12 1f c3 bb ed 98 df 3b 95 27 eb 3b 5b 09 71 bc
       -0.0059546316 0.00682365 0.0071763494 -0.014711703
000330 d6 e9 3f bb 13 92 cd 3b c3 fe d7 bb 00 5c 13 bc
       -0.0029283664 0.006273517 -0.0065916493 -0.0089941025
000340 63 a1 34 3c 3f 57 96 3b 1c a2 24 3b 32 6d d9 3b
       0.011024806 0.0045880373 0.0025121039 0.0066353315
000350 d9 05 ab 3b 1d 0b d6 3b b0 d8 79 3c 69 69 48 bb
       0.005219203 0.0065320865 0.015249416 -0.0030580407
000360 50 3d 2b bc 1a b6 fe ba bd 58 fd 3a fe d5 36 3c
       -0.01045163 -0.0019432933 0.0019328814 0.011159418
000370 07 02 32 ba 09 91 0b 3c 0d 41 cd 3a cf a0 3f 3c
       -0.0006790463 0.008518466 0.0015659645 0.011696055
000380 25 02 4d 3c 52 b1 6d ba 3f 17 b9 3b af 37 9e bb
       0.012512718 -0.00090672553 0.005648523 -0.0048284153
000390 28 85 11 bb 85 34 ec bb 15 2d f8 3b 2a 8d a7 3c
       -0.0022204611 -0.0072084093 0.0075737336 0.020453054
0003a0 a5 3e 57 bc 62 54 62 3b 0d 57 63 bb 64 8f bb 3b
       -0.013137494 0.003453516 -0.0034689337 0.0057238806
0003b0 b8 cc 08 3c 8a e9 e7 3b 8a 21 8b 3c 53 8b 60 bb
       0.00834959 0.0070774006 0.016983766 -0.0034262731
0003c0 db c7 f5 bb 18 20 79 3b 42 55 50 bc 72 c2 ef ba
       -0.0075006313 0.0038013514 -0.01271564 -0.0018292202
0003d0 f2 f0 46 3a 6f b3 8c 3c 8f 7a 7b bc e7 b7 8f ba
       0.0007589004 0.017175404 -0.015349044 -0.0010964841
0003e0 a0 e0 78 3a 70 b5 ed bb cf 96 16 3c 2b a1 5b bc
       0.0009493921 -0.007254295 0.009191229 -0.013405125
0003f0 db 43 7b bb 5d 90 5a 3c 14 ae c3 ba 77 fe ae ba
       -0.0038340006 0.013340083 -0.0014929199 -0.0013350983

action_model._discrete_distribution.branches.4.bias f4 [2]
000000 00 00 00 00 00 00 00 00
       0.0 0.0

action_model._discrete_distribution.branches.4.weight f4 [2, 128]
000000 8b 44 4d bc 6f 61 c1 bb a1 98 c9 3c 13 bc 1b 3b
       -0.012528549 -0.0059015076 0.024608912 0.0023763224
000010 9b 1b 04 3b f2 38 90 3b 95 46 56 3c 3b ea 84 3b
       0.0020158056 0.0044013197 0.0130783515 0.0040562428
000020 8d cb 03 3c 6a d2 96 bc 65 72 d4 3b 43 94 ca bb
       0.008044136 -0.01841088 0.0064833635 -0.006182225
000030 90 a6 ee 3b 93 68 84 bb 55 51 61 bb eb 0f f5 bb
       0.0072830394 -0.0040407865 -0.0034380753 -0.007478704
000040 c5 b9 10 3c d4 3a 27 3c 8d 5a 52 bb c5 5f f7 3b
       0.008833353 0.010206897 -0.003209743 0.0075492584
000050 03 15 a1 3b 52 ea f8 bb 08 ee 11 bc c2 2e 91 ba
       0.004915835 -0.0075962925 -0.008906849 -0.0011076557
000060 73 01 19 bc bb fb 2f 3c bb e8 df bb e3 f0 09 bb
       -0.009338724 0.01074117 -0.0068331636 -0.002104812
000070 cd 61 1b 3c 65 00 2d bc 64 bf 0f bb 92 ab f7 bb
       0.009483767 -0.010559176 -0.0021934146 -0.0075582946
000080 e8 f0 11 3b b8 ae 02 bc 9f d2 3f bb ab a0 01 3c
       0.0022268835 -0.0079762265 -0.0029269827 0.007911841
000090 eb af 2b bc 92 3d 81 3b 83 dc 82 3b 2a e3 cb 3c
       -0.010478954 0.0039441073 0.003993572 0.024888594
0000a0 53 21 bb 3c 9f 48 eb bb 1a 5e 14 bc f2 60 df 3c
       0.022843039 -0.007180288 -0.009055639 0.027267907
0000b0 30 63 85 3b 8b cc 7c 3c bf dc ce 3a 3f b0 37 3b
       0.004070662 0.015429626 0.001578234 0.0028028635
0000c0 72 3e 02 bc 0e 62 06 3c f0 e3 db 3b 87 ce 0b bc
       -0.007949458 0.008202089 0.006710522 -0.008533127
0000d0 f8 38 b1 3b 8b 0a fb bb a7 30 8b bb 7a ab d5 bc
       0.0054084025 -0.007661169 -0.004247743 -0.026082743
0000e0 fe ac 8f 3b bd 58 e3 bb 8f 31 c6 3b df 98 3c 3b
       0.004384636 -0.0069380687 0.0060483883 0.0028777642
0000f0 9b 4f 7a 3c 30 6c 3d bc 3c 57 41 3b 8a f2 6d 3b
       0.0152777685 -0.011561438 0.0029501459 0.0036307895
000100 e3 40 8c 3b df 19 16 39 11 95 12 bc a9 a9 0e 3c
       0.004280196 0.00014314752 -0.008946673 0.008707442
000110 e7 19 e9 bb f6 70 84 ba eb 2c 0f 3b ff 9e bb 3b
       -0.0071136835 -0.0010104466 0.0021846842 0.005725741
000120 78 2c 33 3b 6b 81 89 ba 33 6c 5d bc 59 6d 06 bc
       0.0027339738 -0.001049084 -0.013514566 -0.008204781
000130 cb de e3 b8 c7 94 c9 bb 40 87 22 bc 73 bd 91 bb
       -0.00010865702 -0.006151769 -0.009919941 -0.004447633
000140 1e 56 4a 3c 97 ee 22 bc 87 c3 d0 3b 80 b9 17 bc
       0.0123496335 -0.00994458 0.006370965 -0.009260535
000150 17 28 fb 3a 78 dc 79 ba af b4 1a 3b 38 ba 33 3b
       0.0019161728 -0.00095314486 0.002360623 0.0027424227
000160 b7 f4 89 bb 33 39 c6 bb 24 9b 07 bc 2a 19 bc b8
       -0.0042100805 -0.006049299 -0.0082767345 -8.969226e-05
000170 4a 3d 4a bb ab 6e 8b 3b 1b da f2 bb b0 db 95 bb
       -0.0030859285 0.004255136 -0.007411254 -0.004573308
000180 f0 e2 1f bb 6a d7 64 bc 27 3c 8b 3b 50 78 13 bc
       -0.002439674 -0.013967374 0.004249114 -0.009000853
000190 de 9a a4 3c 17 09 09 bc 55 9f c1 3a ae 21 8e 3c
       0.020093378 -0.008363984 0.0014772216 0.017350044
0001a0 87 b8 a0 3b 4f cf 2e bc aa 1a eb bb 31 23 2d 3c
       0.00490481 -0.010669543 -0.0071748095 0.010567472
0001b0 43 15 1e 3c ae 8c 20 3b de cc 2f bb e2 57 e1 3b
       0.009648624 0.0024497914 -0.0026824991 0.0068769315
0001c0 dc 4b 08 3a 85 fd 67 bc 6b e6 a4 39 93 e6 8b bb
       0.0005199292 -0.014159565 0.00031452192 -0.00426943
0001d0 b3 9d 96 3b 33 11 30 bc 49 e7 85 3c 65 b6 6f bc
       0.004596436 -0.010746288 0.016345637 -0.014630889
0001e0 65 c0 40 3c 60 1d 57 bb ad 27 b6 bc e7 93 31 bb
       0.01176462 -0.0032823905 -0.022235716 -0.0027096213
0001f0 a2 69 40 3b 4f 31 12 3c 67 19 7d 3c 0d 19 ad ba
       0.0029359837 0.008922889 0.015447951 -0.0013206318
000200 c8 87 7a 3c d9 91 8c 3b af f1 1b 3a c6 95 93 ba
       0.015291162 0.0042898473 0.00059487944 -0.0011259846
000210 f8 1e dc 3a a3 13 3b 3c 5f e8 55 3b 7b 85 80 3b
       0.0016793897 0.011418256 0.0032639725 0.003922162
000220 67 8c 0d 3c 33 ad b9 3b 6c ea 91 3b 3a 97 18 3b
       0.008639432 0.005666399 0.004452994 0.0023283497
000230 23 47 63 bb 0f 6a 93 3c c7 36 4f bc 90 87 1c 3c
       -0.0034679852 0.017994909 -0.012647337 0.009553805
000240 93 0f a6 3a 4a df a7 3a 36 04 89 bb 33 34 57 3c
       0.0012669436 0.0012807634 -0.00418141 0.013135004
000250 e8 d3 4d 3c cb 7e 70 bc 5e 03 c6 3b 39 e1 16 bc
       0.012562729 -0.014678667 0.006042882 -0.009208971
000260 02 0d 36 bc 00 87 09 bc a2 5a 3e bc d3 7f 21 bc
       -0.0111115 -0.008394003 -0.011618288 -0.009857136
000270 5f 80 c9 3a c7 18 12 bc b9 68 37 3b 0d 9d fa bb
       0.001537334 -0.00891704 0.0027986004 -0.0076481164
000280 cd 13 63 bc 65 43 42 bb 50 22 ea bb 58 00 6a 3a
       -0.013859701 -0.002964222 -0.0071452036 0.0008926443
000290 7b 2d 5c bc 12 ac f4 3b 83 25 93 ba 70 32 36 3c
       -0.013438578 0.0074668014 -0.0011226389 0.011120424
0002a0 af a8 ae 3c e8 84 f3 38 0d c3 57 bb 0f 69 c9 bb
       0.021320669 0.00011611899 -0.0032922656 -0.006146557
0002b0 e7 6c 55 bc 62 dd 6f 3b 21 63 b0 3b 36 47 27 bc
       -0.013026453 0.003660046 0.005382911 -0.010209849
0002c0 9a 63 73 bc 95 c5 53 3c ff a1 ff 3a 1b 2f 0d bc
       -0.01485529 0.012925525 0.0019503235 -0.008617188
0002d0 6a 3c 51 3c f4 be 27 ba 63 e7 37 3b 20 80 8d 3c
       0.0127707515 -0.00063989987 0.0028061501 0.017273009
0002e0 ed 6b 45 bc 9b e8 92 ba 3e 59 31 bc b2 85 42 3b
       -0.012049657 -0.0011208238 -0.0108245 0.002968174
0002f0 c4 9f 8f ba 62 d5 aa 3a 13 5a af bb eb 3a 5a bc
       -0.0010957648 0.0013033564 -0.005351314 -0.013319711
000300 a1 92 80 3c f2 ab 4c bc 5b be b0 ba c3 72 e6 3b
       0.015694918 -0.012492167 -0.0013484465 0.0070327236
000310 13 b2 70 3b 3b ce c0 3b d1 9a 88 3b 32 3a f3 bb
       0.0036727234 0.0058839596 0.004168846 -0.007422709
000320 60 74 dc bb 20 b4 8e bc db c5 1b 3b b7 9d ec 39
       -0.00672774 -0.017419875 0.0023769054 0.00045130934
000330 bb 1c 2e ba 0e 05 1d ba 42 cb 53 3b ab 67 0d 3c
       -0.00066418544 -0.0005989828 0.0032317196 0.008630673
000340 89 df 0b 3c 31 c9 3f 3c f3 f1 cc 39 87 66 7a bb
       0.008537182 0.011705683 0.00039090178 -0.0038208084
000350 8b 92 14 3b d6 1b ad ba f7 6e 80 3b 22 e3 7b bb
       0.0022670354 -0.0013207148 0.003919478 -0.0038434942
000360 6f 1a b1 3b 55 7b 67 b9 1f 5e 06 bb cc af 3c 3c
       0.0054047625 -0.00022075821 -0.0020502878 0.011516523
000370 25 00 d0 bb bf b0 7c 3a 42 87 cd 3b a5 b4 60 bc
       -0.0063476735 0.00096393743 0.0062722275 -0.013714944
000380 05 78 2a 3c 7a c5 6d 38 df c7 e0 b9 60 46 f2 bb
       0.010404591 5.6689118e-05 -0.00042873525 -0.0073936433
000390 12 79 f9 bc b2 af 00 3c 77 16 c3 3b 99 19 02 3c
       -0.030453239 0.007854389 0.0059536058 0.007940673
0003a0 75 2a b2 3b 22 d2 60 3b 50 1f ec 3b 5d 50 15 bc
       0.00543719 0.0034304936 0.007205881 -0.009113398
0003b0 fd 10 0a bc b4 31 12 3c f7 ce 85 3a 34 ad 0c 39
       -0.008426902 0.008922983 0.0010208775 0.00013415964
0003c0 58 70 d7 3b 9f f8 29 3c b3 1b d1 3b aa 19 12 3b
       0.0065746717 0.010374217 0.006381476 0.002229313
0003d0 45 cf 5a 3c 5d 74 90 bc 9e 6c 3c bb 4e ed b2 3a
       0.013355081 -0.017633611 -0.0028751264 0.0013651045
0003e0 a0 e4 8e 3b a1 4f 97 bb eb 8a 61 39 d7 be 97 3b
       0.0043607503 -0.004617647 0.00021509423 0.004630904
0003f0 68 fc fc ba 62 63 65 3a 4d 8e 9a bb da be 4f 3b
       -0.0019301297 0.0008750466 -0.0047166706 0.003169945

discrete_action_output_shape f4 [1, 5]
000000 00 00 40 40 00 00 40 40 00 00 00 40 00 00 00 40
       3.0 3.0 2.0 2.0
000010 00 00 00 40
       2.0

network_body._body_endoder.seq_layers.0.bias f4 [128]
000000 00 00 00 00 00 00 00 00 00 00 00 00 00 00 00 00
       0.0 0.0 0.0 0.0
000010 00 00 00 00 00 00 00 00 00 00 00 00 00 00 00 00
       0.0 0.0 0.0 0.0
000020 00 00 00 00 00 00 00 00 00 00 00 00 00 00 00 00
       0.0 0.0 0.0 0.0
000030 00 00 00 00 00 00 00 00 00 00 00 00 00 00 00 00
       0.0 0.0 0.0 0.0
000040 00 00 00 00 00 00 00 00 00 00 00 00 00 00 00 00
       0.0 0.0 0.0 0.0
000050 00 00 00 00 00 00 00 00 00 00 00 00 00 00 00 00
       0.0 0.0 0.0 0.0
000060 00 00 00 00 00 00 00 00 00 00 00 00 00 00 00 00
       0.0 0.0 0.0 0.0
000070 00 00 00 00 00 00 00 00 00 00 00 00 00 00 00 00
       0.0 0.0 0.0 0.0
000080 00 00 00 00 00 00 00 00 00 00 00 00 00 00 00 00
       0.0 0.0 0.0 0.0
000090 00 00 00 00 00 00 00 00 00 00 00 00 00 00 00 00
       0.0 0.0 0.0 0.0
0000a0 00 00 00 00 00 00 00 00 00 00 00 00 00 00 00 00
       0.0 0.0 0.0 0.0
0000b0 00 00 00 00 00 00 00 00 00 00 00 00 00 00 00 00
       0.0 0.0 0.0 0.0
0000c0 00 00 00 00 00 00 00 00 00 00 00 00 00 00 00 00
       0.0 0.0 0.0 0.0
0000d0 00 00 00 00 00 00 00 00 00 00 00 00 00 00 00 00
       0.0 0.0 0.0 0.0
0000e0 00 00 00 00 00 00 00 00 00 00 00 00 00 00 00 00
       0.0 0.0 0.0 0.0
0000f0 00 00 00 00 00 00 00 00 00 00 00 00 00 00 00 00
       0.0 0.0 0.0 0.0
000100 00 00 00 00 00 00 00 00 00 00 00 00 00 00 00 00
       0.0 0.0 0.0 0.0
000110 00 00 00 00 00 00 00 00 00 00 00 00 00 00 00 00
       0.0 0.0 0.0 0.0
000120 00 00 00 00 00 00 00 00 00 00 00 00 00 00 00 00
       0.0 0.0 0.0 0.0
000130 00 00 00 00 00 00 00 00 00 00 00 00 00 00 00 00
       0.0 0.0 0.0 0.0
000140 00 00 00 00 00 00 00 00 00 00 00 00 00 00 00 00
       0.0 0.0 0.0 0.0
000150 00 00 00 00 00 00 00 00 00 00 00 00 00 00 00 00
       0.0 0.0 0.0 0.0
000160 00 00 00 00 00 00 00 00 00 00 00 00 00 00 00 00
       0.0 0.0 0.0 0.0
000170 00 00 00 00 00 00 00 00 00 00 00 00 00 00 00 00
       0.0 0.0 0.0 0.0
000180 00 00 00 00 00 00 00 00 00 00 00 00 00 00 00 00
       0.0 0.0 0.0 0.0
000190 00 00 00 00 00 00 00 00 00 00 00 00 00 00 00 00
       0.0 0.0 0.0 0.0
0001a0 00 00 00 00 00 00 00 00 00 00 00 00 00 00 00 00
       0.0 0.0 0.0 0.0
0001b0 00 00 00 00 00 00 00 00 00 00 00 00 00 00 00 00
       0.0 0.0 0.0 0.0
0001c0 00 00 00 00 00 00 00 00 00 00 00 00 00 00 00 00
       0.0 0.0 0.0 0.0
0001d0 00 00 00 00 00 00 00 00 00 00 00 00 00 00 00 00
       0.0 0.0 0.0 0.0
0001e0 00 00 00 00 00 00 00 00 00 00 00 00 00 00 00 00
       0.0 0.0 0.0 0.0
0001f0 00 00 00 00 00 00 00 00 00 00 00 00 00 00 00 00
       0.0 0.0 0.0 0.0

network_body._body_endoder.seq_layers.0.weight f4 [128, 366]
000000 8a 14 05 bd 63 cc 1a bd 5c b3 b0 3d 04 46 63 3a
       -0.03249029 -0.037792575 0.0862796 0.0008669796
000010 56 26 8f bd af ee 09 3d 7d ee f1 bc f7 82 0e bc
       -0.06989734 0.033674892 -0.029532665 -0.008698217
000020 d2 66 a3 3d aa d5 8d bd 6d ac 5a 3d 57 9b d8 3c
       0.07978596 -0.06925519 0.053387094 0.02644126
000030 9e 5d a1 3c 3b 63 bb bb d7 60 ce 3d b4 40 bb 3d
       0.01969796 -0.0057186163 0.100770645 0.091432005
000040 9f 56 1b 3d 5f fa a9 3c be 82 58 3d a9 fd 1a 3c
       0.037924405 0.020749269 0.05285906 0.009459891
000050 68 5c 65 3d 2b 6f 52 3d 38 f4 87 bb 09 88 30 3d
       0.05599633 0.05137555 -0.004148986 0.043098483
000060 de 48 ef bb 84 5a 93 bc 9f 69 d5 3c 58 bf 81 bc
       -0.0073023876 -0.017987497 0.02605134 -0.01583831
000070 c7 69 2e ba c3 24 3d bd 98 23 c3 3b ef 95 d1 3d
       -0.00066533353 -0.046177637 0.005955171 0.10233676
000080 56 25 96 bc cc 83 eb bd 13 55 92 bd c4 b7 76 bb
       -0.01832835 -0.11499748 -0.07145133 -0.0037646154
000090 5a 44 22 3c f0 1c 06 be d5 71 aa bd ac e2 58 bd
       0.009903992 -0.13096976 -0.08322493 -0.052950546
0000a0 f1 74 e9 bc 71 2d 8c 3d 2d 6d e2 bd 57 a0 06 3c
       -0.028498145 0.06844605 -0.1105598 0.008216939
0000b0 48 e5 b9 bb bd 32 b3 3d be d7 04 3d 21 8e ba bb
       -0.0056730844 0.08749912 0.03243231 -0.0056932126
0000c0 3d 35 23 3d 95 4e bc bd 7d 8a 50 3c 12 c3 86 3c
       0.039845694 -0.09194676 0.012728331 0.016450439
0000d0 6c a4 4b 3d 41 2d 37 3d f1 fc 7b bc e3 8f ee bc
       0.04971735 0.044720892 -0.01538013 -0.029121345
0000e0 65 6e b1 3c b7 39 1c bd 57 64 cb bd 98 eb 46 bd
       0.021659086 -0.03814098 -0.09931248 -0.048564523
0000f0 de b9 e1 bb 96 26 9a bd a4 11 e8 3b 1f 75 1c 3d
       -0.006888612 -0.07526891 0.007082181 0.038197633
000100 6a 05 a5 3b 9d b5 d8 3b 8b c5 53 bc 61 ff 57 bd
       0.005036046 0.006613447 -0.012925516 -0.052733783
000110 bb dd 2e 3d 28 b1 84 bd 9c 3d df 3c cd fd 97 bd
       0.042691927 -0.064791024 0.027251057 -0.074214555
000120 a8 b7 a9 ba db ea 70 3c a2 08 6a bd c4 46 aa 3d
       -0.0012948411 0.014704431 -0.05713714 0.08314279
000130 c3 0d a8 bd bf 91 3a bd 97 e5 a4 bb b4 a1 6e 3c
       -0.0820575 -0.04554915 -0.005032252 0.01456492
000140 51 5c 07 3d 9c 50 59 bc b7 ec 2f bc 1c 16 8c bd
       0.033047024 -0.013263848 -0.01073759 -0.068401545
000150 d7 e2 10 bd 4c 27 f6 3b 13 dc f8 bc 18 f1 5d bd
       -0.03537258 0.007512009 -0.030378377 -0.054185003
000160 f3 86 a7 3d b7 bf 7d bd f9 05 7c 3c 25 27 1b bc
       0.081800364 -0.06195041 0.015382283 -0.009469782
000170 5a a0 40 b9 bd ce e4 3d 0e db 24 bd 13 b2 b7 3d
       -0.00018370282 0.11172245 -0.04024797 0.08969512
000180 25 0f b9 3c c3 f8 c6 3b 71 07 ce 3c 90 c9 29 3d
       0.02259023 0.006072135 0.025150033 0.04145199
000190 d7 64 c8 3c 49 da 18 3d 97 8e 7a bd 81 b8 19 bd
       0.024462147 0.037317548 -0.06117114 -0.037529472
0001a0 d6 df 45 bd 71 d8 ac bc 4b 63 19 3d cb 8c 0e bd
       -0.04830917 -0.021099301 0.03744821 -0.03480224
0001b0 b0 7d 51 3d 38 de 33 bb ff a2 91 3c 9d 4a 79 bc
       0.051145256 -0.0027445685 0.017777918 -0.015215543
0001c0 8b 77 08 3e b7 3f 45 3d a9 02 47 3d 26 64 a1 bc
       0.13326852 0.048156466 0.04858652 -0.019701075
0001d0 ed 11 0d 3d 96 cb 3e bd 9d 03 a2 3d 60 0c 26 bb
       0.034440923 -0.046580873 0.079108454 -0.0025336966
0001e0 32 2c ac 3d d5 f3 07 3b 8e 0b 76 bd 8b 43 5c bd
       0.08406867 0.00207447 -0.060069613 -0.05377535
0001f0 6b dc ce bd b2 6a bf bd b7 70 06 bd 88 d4 9b 3c
       -0.10100635 -0.093465224 -0.032822337 0.019022241
000200 4b 85 4a 3b 5c 36 3e ba fa 7e 65 bc 39 61 b6 3d
       0.0030902203 -0.0007256025 -0.014007324 0.089052625
000210 dc 90 9b 3b 8b 06 8f bd 8d dd 36 3d e2 ad 0c bd
       0.004747493 -0.0698367 0.04464488 -0.034345515
000220 50 8c e5 bd fd 04 05 3d ac e2 b0 3d eb 39 a8 3c
       -0.11208403 0.03247546 0.08636984 0.02053543
000230 79 15 92 bd 33 67 7b 3d 7a 72 88 bd c4 0e 07 3d
       -0.07133002 0.061377715 -0.0666246 0.032973066
000240 4a 49 48 3d d9 a0 0f 3c 79 8c f3 3b 36 f1 f1 3c
       0.04889802 0.008766376 0.007432517 0.029533964
000250 4c 47 02 bd 36 d0 98 3d ce 29 80 3d 6c f2 39 3d
       -0.031806275 0.07461588 0.062579736 0.045397207
000260 6e e3 68 bd 4d 03 75 bd 6b 41 a0 3d 9f 4e 5a 3d
       -0.05685752 -0.0598176 0.078249775 0.053297635
000270 fa 56 34 3d e2 5b 8b bd 88 b2 dd 3c c6 f0 c1 3c
       0.04402826 -0.06804635 0.02706267 0.02367438
000280 b7 9f e2 bc c5 08 b9 3b 3b 6c b6 bc fc 6d 11 3d
       -0.027664049 0.0056467974 -0.022268405 0.03550528
000290 40 60 6e 3b 18 c6 ec bc d7 72 97 3d 29 fe d4 3d
       0.0036373287 -0.028903052 0.07394951 0.1040004
0002a0 1e 4c 95 3d dd f2 a3 3d b4 9f a6 bd 85 12 02 bd
       0.07289909 0.08005307 -0.0813593 -0.031755943
0002b0 79 4b 3b 3d bd f1 b0 3c e1 88 98 3c 63 db 5f bd
       0.045726273 0.021599645 0.018619956 -0.054652583
0002c0 3a 53 06 bc dc e9 6f 3d 63 d7 4b bd cb 08 00 bd
       -0.008198554 0.058572635 -0.049765956 -0.031258386
0002d0 08 71 12 bd 8e 9c a3 bd 1c 4f 02 3a 87 a0 a3 bd
       -0.035752326 -0.07988845 0.00049708947 -0.079896025
0002e0 19 39 19 3c f5 a7 ac bc 7f 0a 35 3d f7 11 b8 3d
       0.009351992 -0.021076182 0.044199463 0.089878015
0002f0 cc 3d 15 bc bd f3 c3 bc d0 bf f5 3c bf d9 99 bd
       -0.009108972 -0.023919934 0.02999869 -0.07512235
000300 12 05 2f bd b3 16 f3 3c 9c 70 30 ba 6c 1c cf 3c
       -0.042729445 0.02967391 -0.00067306473 0.025282107
000310 72 f5 29 bc 16 72 c8 bc 99 b6 d0 bc 41 c0 20 3d
       -0.01037346 -0.024468463 -0.025477694 0.039245848
000320 ba 60 bc 3a 24 09 90 3d 35 ed a0 bd 79 81 70 bd
       0.0014372088 0.070329934 -0.07857744 -0.058717225
000330 12 0a 6d bc aa ae f5 b9 04 20 fe bd 02 1c ad 3d
       -0.014467733 -0.00046860176 -0.1240845 0.08452608
000340 17 26 65 3b 86 89 c7 bc 07 6f 52 bd f1 00 25 bd
       0.003496533 -0.024357568 -0.051375415 -0.0402841
000350 60 07 c1 bc 6b b0 53 bd 53 d5 22 bd 2a 41 54 bd
       -0.023563087 -0.051681917 -0.039754223 -0.051819958
000360 dc c4 02 bd 25 98 b8 bd d7 46 95 bb a6 56 99 3b
       -0.03192602 -0.09013394 -0.004555564 0.0046795188
000370 da 22 52 3d 8d 62 d3 3c 1f 62 76 bc 24 73 85 bd
       0.05130277 0.025803829 -0.015038042 -0.06516102
000380 23 18 3a bd 04 70 30 bd e8 ae 45 3d c1 75 13 bd
       -0.045433175 -0.043075576 0.048262507 -0.03600097
000390 98 1c d5 bd 15 b4 bd 3c c0 33 b3 3c 6a 74 be bd
       -0.104058444 0.023157159 0.021875262 -0.09299548
0003a0 17 83 b4 3c 23 bc 82 bb 9c 7a 6d 3d 19 f3 c2 bc
       0.022035165 -0.003989713 0.057978258 -0.023797559
0003b0 ba d5 0e 3d 1c 83 9d 3d 24 06 82 bd 05 8e fc 3c
       0.034871794 0.07691023 -0.063488275 0.030829439
0003c0 2c eb c7 bd ee ed 0d 3d 3d 64 12 be 41 9e ce bc
       -0.09761652 0.034650736 -0.1429605 -0.025221946
0003d0 79 17 a4 bc 17 c6 89 3c 65 3f 87 3d 72 4d 7e 3c
       -0.020030724 0.01681809 0.066038884 0.015521394
0003e0 4e fa 91 3c ce 92 c9 bd b9 bb e7 3c 9b e8 dd 3b
       0.01781955 -0.09842454 0.028287755 0.0067721135
0003f0 d3 b1 3d 3d 9f 68 b1 bc 38 e4 0e 3d 82 e2 20 bc
       0.046312165 -0.021656333 0.034885615 -0.009819629

network_body._body_endoder.seq_layers.2.bias f4 [128]
000000 00 00 00 00 00 00 00 00 00 00 00 00 00 00 00 00
       0.0 0.0 0.0 0.0
000010 00 00 00 00 00 00 00 00 00 00 00 00 00 00 00 00
       0.0 0.0 0.0 0.0
000020 00 00 00 00 00 00 00 00 00 00 00 00 00 00 00 00
       0.0 0.0 0.0 0.0
000030 00 00 00 00 00 00 00 00 00 00 00 00 00 00 00 00
       0.0 0.0 0.0 0.0
000040 00 00 00 00 00 00 00 00 00 00 00 00 00 00 00 00
       0.0 0.0 0.0 0.0
000050 00 00 00 00 00 00 00 00 00 00 00 00 00 00 00 00
       0.0 0.0 0.0 0.0
000060 00 00 00 00 00 00 00 00 00 00 00 00 00 00 00 00
       0.0 0.0 0.0 0.0
000070 00 00 00 00 00 00 00 00 00 00 00 00 00 00 00 00
       0.0 0.0 0.0 0.0
000080 00 00 00 00 00 00 00 00 00 00 00 00 00 00 00 00
       0.0 0.0 0.0 0.0
000090 00 00 00 00 00 00 00 00 00 00 00 00 00 00 00 00
       0.0 0.0 0.0 0.0
0000a0 00 00 00 00 00 00 00 00 00 00 00 00 00 00 00 00
       0.0 0.0 0.0 0.0
0000b0 00 00 00 00 00 00 00 00 00 00 00 00 00 00 00 00
       0.0 0.0 0.0 0.0
0000c0 00 00 00 00 00 00 00 00 00 00 00 00 00 00 00 00
       0.0 0.0 0.0 0.0
0000d0 00 00 00 00 00 00 00 00 00 00 00 00 00 00 00 00
       0.0 0.0 0.0 0.0
0000e0 00 00 00 00 00 00 00 00 00 00 00 00 00 00 00 00
       0.0 0.0 0.0 0.0
0000f0 00 00 00 00 00 00 00 00 00 00 00 00 00 00 00 00
       0.0 0.0 0.0 0.0
000100 00 00 00 00 00 00 00 00 00 00 00 00 00 00 00 00
       0.0 0.0 0.0 0.0
000110 00 00 00 00 00 00 00 00 00 00 00 00 00 00 00 00
       0.0 0.0 0.0 0.0
000120 00 00 00 00 00 00 00 00 00 00 00 00 00 00 00 00
       0.0 0.0 0.0 0.0
000130 00 00 00 00 00 00 00 00 00 00 00 00 00 00 00 00
       0.0 0.0 0.0 0.0
000140 00 00 00 00 00 00 00 00 00 00 00 00 00 00 00 00
       0.0 0.0 0.0 0.0
000150 00 00 00 00 00 00 00 00 00 00 00 00 00 00 00 00
       0.0 0.0 0.0 0.0
000160 00 00 00 00 00 00 00 00 00 00 00 00 00 00 00 00
       0.0 0.0 0.0 0.0
000170 00 00 00 00 00 00 00 00 00 00 00 00 00 00 00 00
       0.0 0.0 0.0 0.0
000180 00 00 00 00 00 00 00 00 00 00 00 00 00 00 00 00
       0.0 0.0 0.0 0.0
000190 00 00 00 00 00 00 00 00 00 00 00 00 00 00 00 00
       0.0 0.0 0.0 0.0
0001a0 00 00 00 00 00 00 00 00 00 00 00 00 00 00 00 00
       0.0 0.0 0.0 0.0
0001b0 00 00 00 00 00 00 00 00 00 00 00 00 00 00 00 00
       0.0 0.0 0.0 0.0
0001c0 00 00 00 00 00 00 00 00 00 00 00 00 00 00 00 00
       0.0 0.0 0.0 0.0
0001d0 00 00 00 00 00 00 00 00 00 00 00 00 00 00 00 00
       0.0 0.0 0.0 0.0
0001e0 00 00 00 00 00 00 00 00 00 00 00 00 00 00 00 00
       0.0 0.0 0.0 0.0
0001f0 00 00 00 00 00 00 00 00 00 00 00 00 00 00 00 00
       0.0 0.0 0.0 0.0
